…
[ Thu Dec  5 01:04:47 2024 ] Initializing components...
[ Thu Dec  5 01:04:59 2024 ] Initializing basic attributes...
[ Thu Dec  5 01:04:59 2024 ] Setting up environment...
[ Thu Dec  5 01:04:59 2024 ] Using GPU device 0
[ Thu Dec  5 01:04:59 2024 ] Initializing components...
[ Thu Dec  5 01:05:57 2024 ] Initializing basic attributes...
[ Thu Dec  5 01:05:57 2024 ] Setting up environment...
[ Thu Dec  5 01:05:57 2024 ] Using GPU device 0
[ Thu Dec  5 01:05:57 2024 ] Initializing components...
[ Thu Dec  5 01:05:57 2024 ] Model EnhancedDualPathFallDetector(
  (phone_xyz_processor): EnhancedXYZProcessor(
    (xyz_encoder): Sequential(
      (0): Conv1d(3, 16, kernel_size=(5,), stride=(1,), padding=(2,))
      (1): BatchNorm1d(16, eps=1e-05, momentum=0.1, affine=True, track_running_stats=True)
      (2): GELU(approximate='none')
      (3): Dropout(p=0.1, inplace=False)
      (4): Conv1d(16, 32, kernel_size=(7,), stride=(1,), padding=(3,))
      (5): BatchNorm1d(32, eps=1e-05, momentum=0.1, affine=True, track_running_stats=True)
      (6): GELU(approximate='none')
      (7): Dropout(p=0.1, inplace=False)
      (8): Conv1d(32, 32, kernel_size=(9,), stride=(1,), padding=(4,), groups=32)
      (9): BatchNorm1d(32, eps=1e-05, momentum=0.1, affine=True, track_running_stats=True)
      (10): GELU(approximate='none')
      (11): MaxPool1d(kernel_size=2, stride=2, padding=0, dilation=1, ceil_mode=False)
      (12): Dropout(p=0.1, inplace=False)
    )
    (attention): MultiheadAttention(
      (out_proj): NonDynamicallyQuantizableLinear(in_features=32, out_features=32, bias=True)
    )
    (norm): LayerNorm((32,), eps=1e-05, elementwise_affine=True)
  )
  (phone_smv_processor): EnhancedSMVProcessor(
    (smv_encoder): Sequential(
      (0): Conv1d(1, 16, kernel_size=(7,), stride=(1,), padding=(3,))
      (1): BatchNorm1d(16, eps=1e-05, momentum=0.1, affine=True, track_running_stats=True)
      (2): GELU(approximate='none')
      (3): Dropout(p=0.1, inplace=False)
      (4): Conv1d(16, 32, kernel_size=(11,), stride=(1,), padding=(5,))
      (5): BatchNorm1d(32, eps=1e-05, momentum=0.1, affine=True, track_running_stats=True)
      (6): GELU(approximate='none')
      (7): Dropout(p=0.1, inplace=False)
      (8): Conv1d(32, 32, kernel_size=(15,), stride=(1,), padding=(7,), groups=32)
      (9): BatchNorm1d(32, eps=1e-05, momentum=0.1, affine=True, track_running_stats=True)
      (10): GELU(approximate='none')
      (11): MaxPool1d(kernel_size=2, stride=2, padding=0, dilation=1, ceil_mode=False)
      (12): Dropout(p=0.1, inplace=False)
    )
    (threshold_learner): Sequential(
      (0): AdaptiveMaxPool1d(output_size=1)
      (1): Flatten(start_dim=1, end_dim=-1)
      (2): Linear(in_features=32, out_features=16, bias=True)
      (3): GELU(approximate='none')
      (4): Dropout(p=0.1, inplace=False)
      (5): Linear(in_features=16, out_features=8, bias=True)
      (6): GELU(approximate='none')
      (7): Dropout(p=0.1, inplace=False)
      (8): Linear(in_features=8, out_features=1, bias=True)
      (9): Sigmoid()
    )
  )
  (watch_xyz_processor): EnhancedXYZProcessor(
    (xyz_encoder): Sequential(
      (0): Conv1d(3, 16, kernel_size=(5,), stride=(1,), padding=(2,))
      (1): BatchNorm1d(16, eps=1e-05, momentum=0.1, affine=True, track_running_stats=True)
      (2): GELU(approximate='none')
      (3): Dropout(p=0.1, inplace=False)
      (4): Conv1d(16, 32, kernel_size=(7,), stride=(1,), padding=(3,))
      (5): BatchNorm1d(32, eps=1e-05, momentum=0.1, affine=True, track_running_stats=True)
      (6): GELU(approximate='none')
      (7): Dropout(p=0.1, inplace=False)
      (8): Conv1d(32, 32, kernel_size=(9,), stride=(1,), padding=(4,), groups=32)
      (9): BatchNorm1d(32, eps=1e-05, momentum=0.1, affine=True, track_running_stats=True)
      (10): GELU(approximate='none')
      (11): MaxPool1d(kernel_size=2, stride=2, padding=0, dilation=1, ceil_mode=False)
      (12): Dropout(p=0.1, inplace=False)
    )
    (attention): MultiheadAttention(
      (out_proj): NonDynamicallyQuantizableLinear(in_features=32, out_features=32, bias=True)
    )
    (norm): LayerNorm((32,), eps=1e-05, elementwise_affine=True)
  )
  (watch_smv_processor): EnhancedSMVProcessor(
    (smv_encoder): Sequential(
      (0): Conv1d(1, 16, kernel_size=(7,), stride=(1,), padding=(3,))
      (1): BatchNorm1d(16, eps=1e-05, momentum=0.1, affine=True, track_running_stats=True)
      (2): GELU(approximate='none')
      (3): Dropout(p=0.1, inplace=False)
      (4): Conv1d(16, 32, kernel_size=(11,), stride=(1,), padding=(5,))
      (5): BatchNorm1d(32, eps=1e-05, momentum=0.1, affine=True, track_running_stats=True)
      (6): GELU(approximate='none')
      (7): Dropout(p=0.1, inplace=False)
      (8): Conv1d(32, 32, kernel_size=(15,), stride=(1,), padding=(7,), groups=32)
      (9): BatchNorm1d(32, eps=1e-05, momentum=0.1, affine=True, track_running_stats=True)
      (10): GELU(approximate='none')
      (11): MaxPool1d(kernel_size=2, stride=2, padding=0, dilation=1, ceil_mode=False)
      (12): Dropout(p=0.1, inplace=False)
    )
    (threshold_learner): Sequential(
      (0): AdaptiveMaxPool1d(output_size=1)
      (1): Flatten(start_dim=1, end_dim=-1)
      (2): Linear(in_features=32, out_features=16, bias=True)
      (3): GELU(approximate='none')
      (4): Dropout(p=0.1, inplace=False)
      (5): Linear(in_features=16, out_features=8, bias=True)
      (6): GELU(approximate='none')
      (7): Dropout(p=0.1, inplace=False)
      (8): Linear(in_features=8, out_features=1, bias=True)
      (9): Sigmoid()
    )
  )
  (fusion): Sequential(
    (0): Linear(in_features=128, out_features=96, bias=True)
    (1): LayerNorm((96,), eps=1e-05, elementwise_affine=True)
    (2): GELU(approximate='none')
    (3): Dropout(p=0.1, inplace=False)
    (4): Linear(in_features=96, out_features=64, bias=True)
    (5): LayerNorm((64,), eps=1e-05, elementwise_affine=True)
    (6): GELU(approximate='none')
    (7): Dropout(p=0.1, inplace=False)
    (8): Linear(in_features=64, out_features=32, bias=True)
  )
  (transformer): TransformerEncoder(
    (layers): ModuleList(
      (0-5): 6 x TransformerEncoderLayer(
        (self_attn): MultiheadAttention(
          (out_proj): NonDynamicallyQuantizableLinear(in_features=32, out_features=32, bias=True)
        )
        (linear1): Linear(in_features=32, out_features=128, bias=True)
        (dropout): Dropout(p=0.1, inplace=False)
        (linear2): Linear(in_features=128, out_features=32, bias=True)
        (norm1): LayerNorm((32,), eps=1e-05, elementwise_affine=True)
        (norm2): LayerNorm((32,), eps=1e-05, elementwise_affine=True)
        (dropout1): Dropout(p=0.1, inplace=False)
        (dropout2): Dropout(p=0.1, inplace=False)
      )
    )
    (norm): LayerNorm((32,), eps=1e-05, elementwise_affine=True)
  )
  (classifier): Sequential(
    (0): Linear(in_features=64, out_features=32, bias=True)
    (1): LayerNorm((32,), eps=1e-05, elementwise_affine=True)
    (2): GELU(approximate='none')
    (3): Dropout(p=0.1, inplace=False)
    (4): Linear(in_features=32, out_features=16, bias=True)
    (5): LayerNorm((16,), eps=1e-05, elementwise_affine=True)
    (6): GELU(approximate='none')
    (7): Dropout(p=0.1, inplace=False)
    (8): Linear(in_features=16, out_features=2, bias=True)
  )
  (fall_feature_extractor): Sequential(
    (0): Linear(in_features=32, out_features=16, bias=True)
    (1): LayerNorm((16,), eps=1e-05, elementwise_affine=True)
    (2): GELU(approximate='none')
    (3): Dropout(p=0.1, inplace=False)
    (4): Linear(in_features=16, out_features=32, bias=True)
  )
) loaded successfully
[ Thu Dec  5 01:05:58 2024 ] 
Starting K-Fold Cross-Validation...
[ Thu Dec  5 01:05:58 2024 ] 
==================== Fold 1/5 ====================
[ Thu Dec  5 01:05:58 2024 ] Error in cross-validation: SMVOptimizedTrainer.load_model() missing 2 required positional arguments: 'model' and 'model_args'
[ Thu Dec  5 01:05:58 2024 ] Loading dataset...
…
